model_weights.npz (npz, 955046 bytes, 4 tensors)

W1 f8 [150, 784]
00000000: 5e2d a89f bffc 66bf b5a7 8f3c a2f6 5d3f
00000010: c83f 9386 a871 37bf 13d2 0a6e 9289 823f
00000020: bcf7 822f ace8 963f e677 7b88 1de6 69bf
00000030: d4ed 5446 79a5 8c3f a8b5 41c6 d24b 033f
00000040: f146 cb59 5ad3 88bf 9435 eb52 c8bb 6d3f
00000050: 8115 3679 b880 92bf 721e a602 b53f 82bf
00000060: 7f05 c38b 1fbe 643f 213f 0929 a24d 6ebf
00000070: d2cc a939 95c7 703f 8c49 2760 a9d9 7e3f
00000080: 0b00 c100 78ee 463f 15ce 5d30 da57 943f
00000090: fe5d 42be 5a72 813f abc9 ff6c 6b68 503f
000000a0: 5efa e8ce 540e 62bf 431c 6823 85f1 883f
000000b0: aff6 0624 b407 53bf 2134 25f5 571f 71bf
000000c0: 56a6 53d3 bdd5 773f ec5c 34ad fa2a 763f
000000d0: f8fe 0efd 926e 623f 9849 b23b 79d5 4d3f
000000e0: 7471 2bad 6da4 703f 602e c16b 7e56 533f
000000f0: c7b3 801c 62ae 813f a900 bd62 2856 833f
00000100: ec59 689d b5ea 5c3f bdc5 5841 2619 7a3f
00000110: 0708 3109 f1dc 483f f857 8f07 f1ee 84bf
00000120: 9c85 7647 c169 823f 64c1 1af8 00e0 643f
00000130: 72ac c91b f583 5bbf d1dd 1303 5ae2 29bf
00000140: 81e8 1494 e3ba 6b3f fd36 00e2 b697 6c3f
00000150: 3cf0 cfd3 79c7 6cbf 76e4 16d2 5ac5 8cbf
00000160: ae62 6e5b f70a 7ebf f940 0e5b 6f87 76bf
00000170: 8678 37a0 63db 3a3f ef93 6bf1 817b 6f3f
00000180: 4e68 b8ed ae5b 75bf 31da 928b ef19 643f
00000190: a835 c345 365a 393f 4b83 8eb1 153f 723f
000001a0: b9d2 12b9 ca61 653f bcc7 d99e 8358 7cbf
000001b0: c44f 3df3 eac8 713f 6ead 60b3 5142 823f
000001c0: c2c3 adc3 bb5d 62bf ab53 0d2a f321 423f
000001d0: 3be1 ee46 73c5 6f3f 5c4c 63fa 97ea 5abf
000001e0: 3744 fd54 e86e 61bf 9fe4 a6a5 95db 49bf
000001f0: d73e f6e5 9f56 8dbf a7d2 6750 fd03 76bf
00000200: 54be ad4b 9f9a 67bf 2ad1 4fca 8b5c 793f
00000210: 8513 04fe 3ea6 78bf 2bb8 aef2 2668 813f
00000220: 0307 a759 7635 71bf f439 732a 1398 8dbf
00000230: 1f19 eab5 e427 7fbf 7de8 d820 4152 9ebf
00000240: 4d1c 994b 90a8 8abf fa32 0803 1753 6abf
00000250: 6cb7 1809 64fd 87bf 90ef 4422 4242 6cbf
00000260: 444d 9af0 70e2 82bf ca7d d652 6b52 673f
00000270: 3e11 a4ce 2dac 81bf fdc3 0f0d 62c8 fe3e
00000280: b8fb 803d d7f0 44bf 2c7e d01a e093 85bf
00000290: 5cc0 fa05 94ab 843f 4232 c3c6 28ae 7abf
000002a0: 6cd3 1b0b a141 823f 590d 44df bcc5 83bf
000002b0: 2bfc a2b3 63c4 523f ba94 0f54 d2b9 773f
000002c0: 4306 b289 cede 80bf 6061 310f b9cd 833f
000002d0: ad08 266e e146 713f cf15 aadc 35b4 48bf
000002e0: 1ec4 8a5b 2e40 8b3f 759f 3337 8e71 733f
000002f0: 2389 5b53 5c31 933f dbd2 6e7d 2687 953f
00000300: 4e64 137a 9e30 903f 70a2 c924 2b64 7ebf
00000310: 7319 fb07 e245 88bf a57e 88b7 ebb0 8fbf
00000320: e58f 9751 e742 8dbf e6f5 460f 26fc 6b3f
00000330: 3557 76e8 19ba 86bf 38d6 127c 88af 7fbf
00000340: 7f7a 74d9 2128 64bf 6bd5 0d7c 4808 63bf
00000350: 818a 8189 7509 78bf c27a 445c 48c1 733f
00000360: 38d8 8704 f193 6b3f 5303 8a61 acd1 743f
00000370: 32bd 1c3c 6984 89bf e3bd 1094 6d90 653f
00000380: 98d6 d6e4 427e 55bf 0032 bc7a 6470 70bf
00000390: 5cb8 34a0 5830 66bf 042d 08ee d7d9 8abf
000003a0: f4d7 434d 49d5 70bf 7211 2a21 ed16 6abf
000003b0: 1e3b 7370 0c65 8fbf 3c5d fc07 cb75 883f
000003c0: f1cb d946 d086 74bf 4399 77a8 463b 883f
000003d0: 2a30 d092 a597 9b3f 495f 5ff5 dd83 a33f
000003e0: 8c1f 5674 cb07 a33f 8dae 61e3 f7d8 873f
000003f0: dd74 f25a b0ca 883f b8b6 60ba ed84 683f
00000400: 724f 1b21 b4ba 87bf 8174 fa7b e10a 8a3f
00000410: 792e 5a68 3f3a 763f f7b0 09d3 f342 90bf
00000420: 57ba cb99 330a 99bf 1afa e388 46a6 96bf
00000430: 88aa dc75 2d00 52bf d3c1 d94c b669 7bbf
00000440: 5fef 020e 7429 56bf ff1c 5419 7e89 7d3f
00000450: 8851 29de c91d 78bf 4aad 7a5a be11 6c3f
00000460: 0891 bfc9 da68 74bf f507 23b9 d1aa 743f
00000470: 78d8 862e db7e 813f 34f6 6767 afd6 553f
00000480: 1133 73dd 71da 71bf 9f2e a792 fc82 88bf
00000490: dbc4 6c0d 4ac6 863f 86cf aff5 da0e 943f
000004a0: bdf8 a3aa e99f a73f 3bfb be70 9ff1 a23f
000004b0: 330c df68 2694 ab3f 4813 5dc4 1cdb ac3f
000004c0: dea7 a0a6 9872 a03f 1913 1c14 1175 9c3f
000004d0: 64af 8118 bbde a03f daf8 2674 edbf 46bf
000004e0: db35 cc5d 20e3 963f 0eda 2498 51c5 9b3f
000004f0: 3b6d ae8d 9e44 823f 22fd 490d 2ab6 26bf
00000500: a192 600d 9913 76bf a244 2855 c251 8b3f
00000510: 3caa aaf5 cb5a 833f 8a9f 1471 5a0e 93bf
00000520: 3217 abb2 2822 843f 4436 eb25 fc0b 6cbf
00000530: 6e4a 9a64 59ed 823f b668 f15b c3d9 933f
00000540: 7800 120b 14d7 65bf cf2a a26b 6e12 70bf
00000550: 4714 4a9a 0956 6ebf df26 9d92 79a8 81bf
00000560: d854 3e21 2ffc 803f 867e a04b 1174 763f
00000570: e34f c977 67aa 933f 8518 04b9 d501 9e3f
00000580: 6c9d aea4 ee1e aa3f 13e9 5ef2 1e4f a73f
00000590: bad8 1803 8e7a b23f fba5 2c90 50a0 b33f
000005a0: f633 b51d 713d b13f 2740 0902 ad5a b13f
000005b0: b548 8e6c 0690 b13f fe1e e623 f747 a43f
000005c0: 8ce9 b8d9 0814 a43f 1f5c 643e 41cb aa3f
000005d0: ddf2 7c01 b153 ac3f 307f f8a3 5d2d ab3f
000005e0: 563f 4a50 fc0b 9f3f 99b5 c418 158b a53f
000005f0: c245 5f9f 1a79 a53f ec23 12ed 4d2f 6abf
00000600: c781 d17c c3c2 7e3f b37a 86af 4b3f 883f
00000610: 431f 39ab 686f 79bf f6a4 67b2 9c29 71bf
00000620: 9fd8 bcb8 964b 56bf fb83 7787 0463 87bf
00000630: 3544 e6ff 44c8 723f e898 7c98 d2c5 5a3f
00000640: 18fa 512c bc37 4b3f 42a0 29ac 8718 53bf
00000650: abbb 293d 1b3d 943f 9561 46d7 fe28 a03f
00000660: 22ba 2d32 6efe a73f 5500 71a8 121f b33f
00000670: 705b 46a0 facf b73f b42c 7049 e56f bf3f
00000680: 4688 ef58 525a b93f e417 800d bfc2 bb3f
00000690: 2f25 162c 22b6 b43f ab64 3790 5f03 b43f
000006a0: 604b bde0 f8e0 b63f 8a95 d98e f84c b83f
000006b0: db4d b13e 8216 b93f 8cb4 5699 7ce3 b53f
000006c0: 3e5e d668 f085 ae3f 70c8 7a82 25e3 a33f
000006d0: 1dd0 47cc e156 a13f b0fe 24fb ff82 943f
000006e0: bee0 31a6 2acd 613f dcf7 fef9 8bc7 5f3f
000006f0: 1265 706f 0c1e 5e3f 7e75 821b a23b 483f
00000700: aeba 17d7 ab31 973f cf42 028e 2ef2 81bf
00000710: a210 f843 6f37 793f 1fc4 0d9e 62ee 863f
00000720: d807 b125 12a1 753f 704d e399 7593 723f
00000730: 53c7 84c5 812d 913f e8de 1aef 0d39 9b3f
00000740: 7ec4 efa3 762e a83f 1c3a 3d58 4524 b23f
00000750: cd72 3a87 cbd2 b43f 6c9c eadb 4ae9 b93f
00000760: 1b26 85ec 65fb bb3f ecb9 048f 311e bc3f
00000770: 6827 37b5 59ae c03f a8e1 1e01 3019 bf3f
00000780: a169 ef5e 6202 be3f a134 9c45 c985 b73f
00000790: 962c ba19 937d ba3f cfad cbb6 c43e b33f
000007a0: 54e8 17fb e10a b13f c837 446f e937 9c3f
000007b0: 5489 c878 a1e8 a63f 92ee cf38 ee4f a93f
000007c0: fcdb 3a89 3310 983f 8822 37fa 8ff9 9d3f
000007d0: 4f8a 8d26 3f72 7d3f 8cf1 0c24 c690 813f
000007e0: 19a6 7488 2234 323f 5299 c1f2 9e8c 823f
000007f0: 1c73 0675 9bf0 8f3f 2553 2ce3 cf6d 773f
-0.0028060667657478352 0.0018288215962862623 -0.0003577267112406771 0.009051460250113974 0.022371950530889015 -0.0031614853686354636 0.013987491091589734 3.680455191177749e-05
-0.012121873727128004 0.003629580743427405 -0.018069155119083916 -0.008910574096048427 0.002532064068959172 -0.0036991278832728823 0.0040965870963305 0.007531797049937682
0.0006998144103889115 0.019866379930546147 0.008518895083667207 0.0010014580802787203 -0.0022040993128762806 0.012179412978197251 -0.0011615046679333376 -0.004180282196398572
0.0058190741594699915 0.005412081914321503 0.002249991499837619 0.0009104577979022642 0.0040630611644839505 0.0011802897052061376 0.008633390898546879 0.009441676629308242
0.0017649434645413643 0.006371640619862115 0.0007587601597907064 -0.01022136978455633 0.008990774148346863 0.0025482195786354234 -0.0016794103277344677 -0.00019748066691936556
0.003385014046810631 0.0034903118066783576 -0.0035130862656825006 -0.014048299347324749 -0.007334676970366756 -0.0055002546149724935 0.0004098051287807564 0.003843072695746567
-0.00521438914759116 0.0024537733666776464 0.0003868467808957007 0.004454693546819775 0.002610107367752992 -0.006920351164454826 0.004342000745811651 0.008915556227370582
-0.002241961219106221 0.0005533635449902393 0.0038783313279645826 -0.0016428455506243477 -0.0021280801519556708 -0.000789115972387528 -0.014325379567508829 -0.005374898441449594
-0.0028813468210769164 0.006191774421484811 -0.006017919600940118 0.00849943569286545 -0.004201376252639613 -0.014450216038679443 -0.007606404686731487 -0.029610650663223204
-0.013016822154112396 -0.0032134484720301977 -0.011713773276905669 -0.0034495631863630874 -0.009220964758503876 0.0028469177402283595 -0.008629186505011984 2.935671438203737e-05
-0.0006390620210437936 -0.010535956209479634 0.010092884476165569 -0.006513747485041467 0.008914240027914487 -0.009654498637707109 0.0011454557084531562 0.005792447657744388
-0.008237470223551152 0.009669729019308348 0.004217987620338243 -0.0007539046285535647 0.013306009453431907 0.004746966867266046 0.01874298342489412 0.021023370176140737
0.015810466957962448 -0.007419746904454003 -0.011852041119152478 -0.015474168337333902 -0.014287764718524396 0.0034161322930390424 -0.011097147375760489 -0.0077357608253599205
-0.00246054278581137 -0.00232328564782829 -0.005868395928788518 0.004823000581636707 0.0033664424302015904 0.005082772601441149 -0.012459585329991005 0.002632345218920072
-0.0013118413220189248 -0.004013435838498669 -0.0027086001370184975 -0.013110815955789785 -0.004109655699940252 -0.0031847602306830864 -0.015329453641610476 0.011943422490317539
-0.0050113807497948895 0.011831810013018034 0.026945674024361356 0.03811544056196554 0.037168844176505095 0.011644302965769593 0.012105348372922037 0.0029930728078600664
-0.011586577663741802 0.012716065975207027 0.005426643072165776 -0.015880403285721347 -0.024452978383971615 -0.022118665795455163 -0.0010986751507952325 -0.006692611799380593
-0.0013526566836352322 0.007211201261504429 -0.0058877835713996365 0.00342642954259068 -0.004982809678015572 0.005045718413557045 0.00854274020899147 0.0013329232148174943
-0.004358715806301886 -0.011968587136741702 0.011120394262976443 0.019587918515710644 0.04614191253675546 0.03699968577665521 0.05386467008749953 0.05635919472709944
0.03212430032756662 0.027790324070355064 0.03294930147316569 -0.0006942662660589752 0.022350793576199606 0.02711989871132841 0.008919943522235676 -0.00017327559784872335
-0.005389783726091808 0.013339536880297157 0.009450524744655124 -0.018609440948381052 0.009830778076672073 -0.0034236836212133987 0.00924177015557356 0.019385387884860626
-0.002666033884963833 -0.003923827485901212 -0.003703135257014742 -0.00862212160759007 0.008293503000269473 0.005481784401154882 0.019204727827243927 0.029303874413948456
0.05101724396018423 0.04552551945330854 0.07218253684627288 0.07666495818980217 0.06734377837456393 0.0677898530932458 0.06860389852798472 0.03961155236453172
0.03921535165541731 0.05233196150418728 0.05532601493039178 0.05308048845858904 0.030319158936037503 0.04207673957203468 0.041939575152024414 -0.003196384620029571
0.007509959815337592 0.011839476865870812 -0.006209763395936654 -0.004190075013391628 -0.0013607952013905756 -0.011419330009575282 0.00458552315684906 0.0016340786550670897
0.0008306187452403217 -0.0011655163695199065 0.019764352424711678 0.03156277063243632 0.04686302530796051 0.07469288456286567 0.09301725781402381 0.12280114214825028
0.0990344493034466 0.10844034270857567 0.08090413643198667 0.0781764723864337 0.08937030302813076 0.09492448318049732 0.09799970655995287 0.0855024217950861
0.05961562423470611 0.03884236543434916 0.03386598223360713 0.02003097505917023 0.0021730263702544874 0.0019396655043091215 0.001838218826156816 0.0007395307102517205
0.02265041828462227 -0.008762706478849051 0.006156382208704654 0.01119687123147811 0.005280562293650669 0.004535159472840319 0.016775157623846692 0.0265848328769768
0.04722948790721036 0.07086594967152177 0.08134147693130984 0.10121600979856432 0.10930478119293989 0.10983571759854954 0.13032075260553744 0.1214780810104289
0.117223880937138 0.09188516568629491 0.10347861650568499 0.07517651999267304 0.0665723073979348 0.027557036796728857 0.04474358176618645 0.04943794673451153
0.02349930310330349 0.029272317549642796 0.007189032251377527 0.008576915717292598 0.00027776568500090384 0.009057275565464682 0.015595640667748926 0.005719959316384392

b1 f8 [150, 1]
00000000: 8fa2 6891 fb3c b13f 1c6b 18a2 7023 973f
00000010: 0a3a c2b6 34f0 703f a496 1c9c 112d 673f
00000020: 0367 0f62 80e0 90bf 0f98 0a9b 337b c33f
00000030: c9af a391 0741 76bf a102 a4f0 2cdd 7fbf
00000040: 9c77 39e9 c510 933f 3eb5 4930 07bd a4bf
00000050: 24aa 2c6e 31ee 8bbf 64e6 c89d 1b0e 853f
00000060: cf22 8f7d b7b7 c23f 566b 4723 5741 793f
00000070: b725 576c afe0 a73f c025 021c a26c 83bf
00000080: e415 b1b4 d703 4a3f ad87 d8f7 3e48 863f
00000090: 2daa 6acc 540c 3c3f 7cd0 d4dc 8336 913f
000000a0: c99c 31e9 b5af d0bf 872f d91f f88f 97bf
000000b0: f7e9 01c9 77f2 b23f 5af8 48b6 6395 843f
000000c0: 9b94 f56b 4d98 a83f 04e0 4d4f ef95 9c3f
000000d0: e23b 4341 1d8a a2bf d844 32c8 4191 b33f
000000e0: da12 ae2f 1bc9 973f 9db6 d7a1 577e 89bf
000000f0: f48e 5a85 c41d 973f 2165 b9d2 42fa a9bf
00000100: bf97 6fdc 4e59 a53f 2a3b 6941 b274 a9bf
00000110: 5a30 a426 fb09 9bbf b2a9 6242 881c b53f
00000120: af6c beac 304e 653f 641c f484 3489 b53f
00000130: 0564 aad0 185b ab3f ad29 0086 fc84 9a3f
00000140: f73e 83af b576 62bf 9084 4561 adea 913f
00000150: 4b7e 2d89 d98c b43f c17e 6c8a 2722 aa3f
00000160: a7a2 9312 dcce 7c3f 444c e4a8 bc1b b2bf
00000170: ac78 5e81 4bec b03f ae10 29c8 efdf 483f
00000180: 7220 9ec1 16fb 6bbf b239 7284 487e a73f
00000190: fbd4 222b 5efa 883f 73a7 3200 f3c7 8c3f
000001a0: b85b daa8 0970 973f 343b c0ca 057f ad3f
000001b0: 654a ca93 979e a2bf 56d1 0fb1 0f7d 9d3f
000001c0: a923 14a7 543f 8e3f a743 cb3b 6d64 b03f
000001d0: 2f6a bf0e 1f0e a93f 2ffd 8137 be05 b13f
000001e0: 3775 6ba2 6191 b73f d505 c1d2 c490 ae3f
000001f0: 2fed 8cee 0c37 b2bf f6f5 b0da 42e0 453f
00000200: a0ca 0ec2 b5b4 a83f 4fc7 aa46 7b2b b1bf
00000210: a767 c876 03a9 96bf 828d d566 969c aa3f
00000220: cdad 0c60 0141 a43f 7212 09e4 ddd9 ab3f
00000230: fbde 0211 f8c4 803f 8365 5c4e 3870 b23f
00000240: 43e5 a0a4 fa97 813f 4b94 d90b 048d b83f
00000250: eecb 1212 b0b4 843f 7814 8ff7 e42c aa3f
00000260: 2aa9 f163 a34b ca3f 096e 606e 5ab9 66bf
00000270: ccbe 1fba 3d52 693f f879 698b a90f 983f
00000280: a955 9967 a1d1 83bf f4e2 622b 15a8 af3f
00000290: 600c 7ab1 8120 683f 8d46 a81a 8191 a03f
000002a0: 1d83 296b 0ecb 8cbf bbfd 8cf1 1a50 a9bf
000002b0: 0f0f 022e 0f05 af3f f8a0 07fd 634a acbf
000002c0: 08e6 81e8 0169 93bf fd77 a0f2 842b b33f
000002d0: 9f86 7216 93f3 963f 1ec5 177c 0a3b 7e3f
000002e0: d577 f6e7 6618 6d3f 217a c618 8532 b63f
000002f0: adff b981 257a 9fbf 97ff e2a2 5ec1 c23f
00000300: b4a0 3068 c8d1 4c3f 0880 2fb9 a339 753f
00000310: 7c12 c985 de54 b4bf 2663 52d5 2736 b03f
00000320: 3673 b18c b9da 8ebf 7d54 1b9a 94da 92bf
00000330: 5583 69fb 1d19 b63f 2a87 2f0f fc88 b93f
00000340: 86ac a1c5 9b2d 92bf c5ef 3e87 b457 b53f
00000350: 421d 8a53 e496 ac3f df10 c0ee 40c9 ae3f
00000360: e052 4b00 1982 733f 81c5 d07e a3a8 b6bf
00000370: 9280 800d 2f8f b83f b05a fa91 5545 373f
00000380: 3fc2 04d3 be97 b43f e8ff ce33 c05c 55bf
00000390: ba5e 61e4 1179 b83f 926b b121 c518 b93f
000003a0: c031 cacd d604 9d3f c8ba da1a e549 b33f
000003b0: c007 66a7 e88f a2bf 1197 cbcf 88a9 a5bf
000003c0: 1c5f a0b6 92a6 ae3f f662 3c05 eba3 a13f
000003d0: 95cb 64f8 ae75 c73f 50c2 96b6 1b49 a3bf
000003e0: 85ff b1ce 37f6 66bf 8877 7f11 7b42 a5bf
000003f0: 6912 9456 0b82 a8bf 2e8d 8f4d 98e3 7a3f
00000400: 937f 82d5 97d9 8ebf 2b8f a07f 2b16 ac3f
00000410: 331f 26c4 b796 b13f 1ca7 7faa ad9b a73f
00000420: e943 5ead 0261 923f 1f75 00ab 2b02 c43f
00000430: 7230 53c5 2b64 6b3f 9344 a167 da63 b33f
00000440: 6d85 3ecf 9c14 b0bf 83af 7021 880f aabf
00000450: 3126 50ca 4790 84bf 430e a2a7 cac7 a73f
00000460: b37a 712e 9364 a13f 62be fd49 3661 7c3f
00000470: 36d3 fe30 d4ab 99bf 576c f9c1 cf63 a6bf
00000480: 37ed f316 2635 843f 06da 953d 80c6 b33f
00000490: 38fa 0962 ab22 9d3f b22f a5f5 7d0c bc3f
000004a0: a2e1 1550 d185 743f 08b0 15d9 31c8 853f
0.06733677196519693 0.022596130269543754 0.004135328210522102 0.0028291076604485977 -0.01648140524398568 0.15219731397991196 -0.005433110776930713 -0.007779288813481473
0.018618671760456715 -0.04050466980411692 -0.013637911009557753 0.010280814888676555 0.14623159056488652 0.0061658290691991215 0.04663608739390262 -0.009484545211551842
0.0007939151049717844 0.010879985750822241 0.0004279810931772401 0.016809521058533936 -0.2607245232852163 -0.023010136550780238 0.07401226670655335 0.010050562858961044
0.048036975315690365 0.027915705886215406 -0.03620997831023211 0.07643519532782095 0.023228096757082685 -0.012448010088486778 0.02257449211050662 -0.05073746511761557
0.0416969913565448 -0.0497184471938595 -0.026405262216073623 0.0824666177819953 0.0026007605246839076 0.08412483449875335 0.053429389449952715 0.025897927931546928
-0.0022538708254627965 0.017496785222992417 0.08027419661584038 0.051041827819287906 0.007033214243371922 -0.07073573230108915 0.0661055746881824 0.000759117203707157
-0.0034156269511563192 0.04588533989691558 0.01219628876820388 0.014053247874773444 0.022888327532736702 0.057609730720392355 -0.03636621169166147 0.028797383481973547
0.014769231175266588 0.06403238973440627 0.04893586211229139 0.06649388175172953 0.09206209388090235 0.05969824860268217 -0.0711525041960399 0.0006676031529264093
0.048253707827276004 -0.06706972575446211 -0.02212911045544499 0.051975917866708535 0.039558451628490233 0.0543965664733478 0.008188188571110802 0.07202484047993178
0.00859065833002382 0.09590173043541587 0.010110259582097183 0.05112376710852912 0.20543329601361765 -0.002773930190427047 0.0030909734350571313 0.023497246870073568
-0.009677182172860581 0.06182924418084737 0.002945187861600071 0.03236010980994051 -0.01405917419941854 -0.049439279543089985 0.060585474363533114 -0.05525505508177447
-0.018955259147764664 0.07488280223375905 0.022413538212851077 0.007380524593359609 0.00355167483185335 0.08670837263932941 -0.030739389460449896 0.146526174101379
0.0008795002507939937 0.005181922478158192 -0.07942000166173985 0.06332634885837915 -0.015065621954073554 -0.01841194334595685 0.08632075679771607 0.0997464692186695
-0.017752107560607765 0.08336952497387447 0.05583871383447071 0.06012919344360212 0.004762742672671932 -0.08851072164613606 0.0959348113979124 0.00035508479229788125
0.08044045116253871 -0.0013038517929402308 0.09559737992946796 0.09803421089729472 0.02833877211610214 0.07534629731774622 -0.03625418704451944 -0.042309069982179655
0.0598646018917732 0.0344537204638921 0.18327891472435157 -0.03766714671963156 -0.002802952765307456 -0.0415228327617419 -0.04786715919366175 0.006564707692607015
-0.015063463404942279 0.054856643037309936 0.0687060216788467 0.04610960680277129 0.017948190528446793 0.156316240784613 0.00334366368278976 0.0757423880579771
-0.06281452235864089 -0.05089974792676257 -0.010040818082433041 0.046446164095894214 0.033970450801225203 0.006928646151080993 -0.0250695376305032 -0.043730251720909656
0.009866998267617262 0.0772476339678648 0.02845256601221477 0.10956561324309069 0.00501043093515144 0.010635747373008556

W2 f8 [10, 150]
00000000: 4100 9bce c61e de3f 4ab4 09e2 7ed5 b4bf
00000010: d2c6 dd69 b427 b33f 563e 7183 927a b1bf
00000020: c930 8df9 b26c b73f 63e6 401a b09e bbbf
00000030: ef61 b637 776c c5bf b247 388d 9d08 bfbf
00000040: 1c5f 01aa 0a97 d53f 5fe5 010b be24 ac3f
00000050: 4345 5d0e 4d22 783f 99f3 d001 8d17 adbf
00000060: 953c 84d3 9151 b9bf 06a6 335d 3fb0 b2bf
00000070: 3057 7f72 fd72 c6bf a077 f21e 2d80 d23f
00000080: a4d4 1f9d 76be 9e3f ac04 60bc 8362 d63f
00000090: 7f4c 1f3e b360 793f 013d 6f09 45ff 46bf
000000a0: 390f 4a99 ccb7 c43f 1ee5 5711 d0d9 c2bf
000000b0: d779 a27e 21e0 adbf e90e 0d9e e923 913f
000000c0: c2b4 b498 e336 bcbf 3292 63ee 1785 95bf
000000d0: 19a0 fa9e a053 b03f edf3 4c66 1437 c4bf
000000e0: 2d95 3bba 7342 d0bf 91d0 d87b 9674 b6bf
000000f0: 4eb9 adf8 2a3c b3bf 7278 ebb1 97b8 d93f
00000100: c2a7 8970 5741 d83f f2fd 9c21 aecc cebf
00000110: 274d 0b4f f33b 753f 2db5 603d b09a c4bf
00000120: fbe5 80d5 646e 87bf 6bc6 ebf6 8bf0 c0bf
00000130: ca20 923a b6b4 b93f b6f7 91b9 b410 d03f
00000140: 7cdb 2033 175c 85bf 0835 0a7e 9e42 853f
00000150: f520 eb4d 49ce b0bf bb9b 635f 6216 be3f
00000160: c140 6236 a714 b43f ade4 e4bc eb1d 953f
00000170: a00a ad6a e543 cb3f 21b7 46c7 efa0 9dbf
00000180: 94f3 c4db 6478 b63f 5c63 f2f2 cf25 b6bf
00000190: b3a8 4710 cddd cbbf 2c4d b310 e80d b9bf
000001a0: 705d 0c4b e3de a63f 7f94 8664 2e7c babf
000001b0: 5e34 48b7 b06c a63f 9709 0013 4a64 c4bf
000001c0: fc14 aa1f 971f a1bf 4143 606f 77a3 c6bf
000001d0: 0fac f275 27f3 a8bf 0697 00b8 7b1b b6bf
000001e0: 0bd8 cde0 d6df c5bf 84a8 c472 184e 8dbf
000001f0: ae59 10bf e3c3 c4bf bd9d ae2e e026 70bf
00000200: aa6d b926 2d3a bcbf 4802 b980 a2cc c43f
00000210: 1f5d 3594 58a3 d1bf 77a1 a42e 5439 a13f
00000220: d81d ad2d 635d b9bf d559 5154 5b3b bcbf
00000230: 5355 218b f906 a8bf adc5 6d44 0eb3 de3f
00000240: 78b7 dd92 718f b2bf 4611 e6a1 d81c b63f
00000250: ea66 f040 4e0f abbf 37fc 88e9 5e65 c5bf
00000260: 9843 fcc6 2396 dbbf d8cb 8c81 2672 a2bf
00000270: 823d ed6f 477c 673f 8d6b b932 5bd8 cabf
00000280: 4706 b269 1b66 d23f fcd5 605f 3726 c8bf
00000290: bd46 4cef 2eb6 9b3f 51d8 8ee2 8eac a4bf
000002a0: 3dd1 65fc 9486 853f 73d6 4300 5ac1 b33f
000002b0: 7b64 ef64 dd04 bdbf 3df2 5bfd f3ef d2bf
000002c0: edb1 1f85 c445 b73f e88a d675 6aef d0bf
000002d0: 40cc 85a7 86fa ccbf 4f61 670b ca6c 90bf
000002e0: 075f dc12 8a0a 833f 28b8 0ee8 ddfa a5bf
000002f0: a08e a447 a317 da3f d862 bf2e 861f c1bf
00000300: 1d2d ae29 ee12 833f f6a7 29f6 6963 d3bf
00000310: b49e c2d6 bb35 a23f 3460 ae1d 7a6e b73f
00000320: 94a0 98a2 caf3 b2bf e2b0 bb90 8e18 b8bf
00000330: 24da 080b acbd a3bf 24dd 0115 3a3c ccbf
00000340: ea53 37c4 422f d3bf 0a1a 4dd2 de9c c7bf
00000350: 33a8 84a0 0611 c2bf 8314 f689 442f d0bf
00000360: c976 df9b 3483 42bf 20b3 bc24 a1f8 a93f
00000370: 22e8 833a c5f4 203f dc0b 2b7a bab5 57bf
00000380: 4a58 188e 3651 c7bf 37e5 f6e8 8528 813f
00000390: d5e4 31dc c0c0 b43f 01d0 9ec8 7f2c d53f
000003a0: c424 7d30 fa01 b83f 265d 1d9f a84e c3bf
000003b0: 89c4 7882 1021 d0bf 59e2 b859 8867 9a3f
000003c0: d42a 094d c783 b6bf 43a7 8676 dbfe a3bf
000003d0: 2928 e852 59dc b63f 7139 fcbb 1d5a bf3f
000003e0: 1e27 e8f4 532e 803f 00fa a8f3 1e14 5ebf
000003f0: 19e4 bfac 5893 b83f 5a5c 16a2 c0fd b1bf
00000400: d20e 6555 cec2 b83f d586 ce62 cd1c a03f
00000410: 294b 834c 3c1b d03f 23d1 05cf 6e10 923f
00000420: dc1b e830 c038 acbf f7ee 098e ac42 b1bf
00000430: 78b4 68ab d68c adbf 086c 191e b6d0 b6bf
00000440: d911 bfea 4641 c53f f128 7ce8 2227 9ebf
00000450: f339 a2b6 ec07 a9bf b355 7907 48e4 bcbf
00000460: b2ce e292 3113 a23f aa0c c9b1 52b1 c93f
00000470: 5bb9 7da6 706d aebf 33c1 6d15 addf b13f
00000480: a848 2a51 8571 a7bf 323e 5ab4 75e9 aa3f
00000490: 697a 356b 8376 bbbf bef8 eec8 8151 903f
000004a0: 1da6 14e4 5d80 80bf b0cd 2ec1 e5c8 d1bf
000004b0: 3343 9b81 9fde d4bf e8fc 9a93 73e7 aebf
000004c0: 0a4d 4f9f e865 b0bf a75c 6955 ebc9 cabf
000004d0: 5ae6 492a b60a 623f b9fa c24a 7fa3 c7bf
000004e0: 7c46 15d0 b2dd cb3f a119 7f48 246e b9bf
000004f0: 7b0e 4623 35e8 ccbf 793c 9bb6 91e9 893f
00000500: 37ee b434 30ad c03f a1b7 a887 2f7b a03f
00000510: 195d 8be2 4a49 bb3f bec9 ff55 fcfe b83f
00000520: 4edd 371a 7182 b33f 926d 759c d5b4 d0bf
00000530: 3ce5 bb48 26a9 88bf 1eff ff65 d5d5 ccbf
00000540: 4196 f5e9 a260 90bf 8db4 df0c 9326 923f
00000550: d6a7 6775 c452 d6bf fd3b e3f8 4bc8 cebf
00000560: af10 8c9c 4496 87bf 7457 6cf7 3646 c7bf
00000570: 8ae9 826b 131b 9abf bf5c b1d7 9967 983f
00000580: 302c 6682 b71b b2bf cec9 3b6d a046 c4bf
00000590: c3d7 9d4e ad17 dc3f 510e 4233 708c b6bf
000005a0: faea bf87 c24c 733f 26fc 68ae 2f16 cebf
000005b0: 352b 392b 6a02 bcbf c70b 5395 a9aa bebf
000005c0: 8afb 7e1e fa29 4abf 4c34 5517 7681 da3f
000005d0: 6b89 9b3b c83a 813f a459 fdd5 7ab8 b43f
000005e0: b28b a70e cff1 773f c00d 0b2f 6a83 893f
000005f0: cde6 9b5d bc01 80bf 4ed9 f7b4 15c1 ce3f
00000600: b5bc 7742 dbcc c23f f9c7 3e6c ba7f c1bf
00000610: 755a 5811 5d30 b8bf dc27 9c23 2d78 c1bf
00000620: 3af4 240e 5d2c 92bf f6ec a962 711b aabf
00000630: 334c ee93 2196 c1bf 0841 ff46 114c c2bf
00000640: c559 a241 cbc9 b13f a39e fe05 3c3e c93f
00000650: aa5e 20d2 9eb9 b4bf 2b73 9cc9 edac ae3f
00000660: f493 7fa9 6c91 9abf 63a4 df6b bac6 b2bf
00000670: 430a 4fe9 1a9d 93bf 4bb0 5cb8 fb14 babf
00000680: 15fc 2672 f752 bd3f 314c 7d35 786c ce3f
00000690: 07f7 d9f0 f006 d13f 4628 712e 0b81 c4bf
000006a0: 4d0b 7406 20fc ce3f 3915 515f badf 873f
000006b0: 8ccd a9e1 0f7f bdbf 5402 810f b15d c2bf
000006c0: 835a 333b d1a8 b93f 6973 d1a2 c707 b7bf
000006d0: f288 c1fd b0f0 c1bf 6cf5 3c86 b616 aa3f
000006e0: 8be2 3270 d966 c0bf b048 055a a301 ddbf
000006f0: a8bb d5da 0418 d2bf 7246 b7df a48b bd3f
00000700: a69d 4176 c80f bcbf f601 ce7a 1e11 cd3f
00000710: 1f8b 1d19 fbfb d33f 709d ebb7 4605 bbbf
00000720: 9272 b85b 2d6e b43f 41a5 19aa 8b3f bc3f
00000730: 537c 8f30 2119 cdbf a4fe 362a 880e c9bf
00000740: 283e b044 71c5 57bf 795d eeb7 7c09 c63f
00000750: 082e b0c4 b303 d0bf 4e5e e9f6 2ca8 c13f
00000760: 39fb e04f 8001 a7bf b51e fbfe 46ea c73f
00000770: dff5 6d59 8d5f d3bf 82f3 048f c482 d6bf
00000780: 2a02 9807 329c b73f ac26 eb05 55c5 86bf
00000790: e68e 11b9 bb26 80bf d5ad 1898 c200 da3f
000007a0: 892b 230e c165 d5bf c375 12a6 837c b13f
000007b0: 98ae c977 9208 923f d5e7 06e8 7e98 aabf
000007c0: df2b 41ba d53e c6bf 0d7e a4c7 62cc a8bf
000007d0: 7e7d 1bfb f7c0 c33f 5770 ebe2 328b c0bf
000007e0: 6bfb 2a96 3696 c63f 0ea8 8904 b301 bebf
000007f0: a2a3 7d63 42e7 d03f 8043 15ee 6737 bd3f
0.4706284539825028 -0.08138268488410563 0.07482459625841933 -0.06827655514757089 0.09150236694876236 -0.10789013520197836 -0.16737261028607928 -0.12122521112203691
0.33734385110936826 0.054967821925809394 0.005892086983139424 -0.0568203034131109 -0.09890090383508927 -0.07300182366784477 -0.17538421717352426 0.28907325765782765
0.030023434963329834 0.3497628535843187 0.0061957360903363 -0.0007018172353755737 0.1618591068728337 -0.1472721180614735 -0.058350607593854846 0.016738558074634566
-0.11021254041834808 -0.021015523839098722 0.06377605325053572 -0.1579308986200937 -0.2540559118918562 -0.08771648906332731 -0.07513683863883111 0.4018916356561767
0.37898813238154727 -0.24062134400627105 0.005184126305454207 -0.16097071644745978 -0.011441028371439002 -0.1323409038227966 0.10041369371367917 0.2510196506699417
-0.010429555175603282 0.010380972119742995 -0.0656476798277515 0.11752905682406738 0.07844014241914278 0.020621951488668234 0.21300952633653925 -0.02893423703942866
0.08777456632101482 -0.08651446992224748 -0.21770633025091043 -0.09786844642376441 0.04466924944989159 -0.10345735506287389 0.04379799115495396 -0.15931058814755936
-0.033444140067368594 -0.17686360300333528 -0.04873011889261402 -0.08635686151736985 -0.17089353539239513 -0.01430911159748783 -0.16222807721414995 -0.003943324768364173
-0.11026270099085048 0.16249495778358125 -0.2755948493335882 0.033640509313332005 -0.09908122887747284 -0.11028071220912435 -0.04692821334235 0.4796786945581413
-0.07250127635572123 0.08637765839200026 -0.052851148059017763 -0.16715608981209737 -0.43103880340736955 -0.036027148546416476 0.002866878057296852 -0.20972766854069072
0.2874821216756555 -0.18866626889364102 0.027062161784732853 -0.040379014163975165 0.010510600998465786 0.0771690607687903 -0.11335548128353594 -0.29589557401758154
0.09090831995099054 -0.26461278445837744 -0.22639544658486166 -0.016039998003038843 0.009297445965372754 -0.042929586961108435 0.4076927375447017 -0.13377454073522332
0.009313450476631286 -0.302942743676453 0.03556620594582452 0.09152949547422012 -0.07403246373781008 -0.09412470849537471 -0.03855645785045095 -0.22058797860857127
-0.29975957071047665 -0.1844748045788978 -0.14114458883097 -0.2528849932935559 -0.0005649573210992571 0.0507250172944167 0.0001293650395906574 -0.0014471360270114008
-0.18216592729794662 0.00837807290268931 0.0810661828599167 0.3308410128768174 0.0937801712399447 -0.15083797234795177 -0.2520180963648007 0.025785570598801353
-0.08794828062779497 -0.03905378171778164 0.08929975771039324 0.12246881331905059 0.007900863563026269 -0.0018358518851894212 0.0959983274223223 -0.07027820546351063
0.09672250351746506 0.03146974402558348 0.2516623255916551 0.01764081133428975 -0.05512047383313476 -0.06742361514801219 -0.0577151378860003 -0.0891221831783896
0.16605459654068858 -0.029446168365247997 -0.04888858537116283 -0.11285829718084166 0.0353026859096678 0.20072396927762287 -0.05942871124612977 0.06981927655374846
-0.045787969739778334 0.05256240679329628 -0.10727712027935755 0.015935924424177676 -0.008057340167016364 -0.2778868090201412 -0.32608783394703095 -0.06035958458732599
-0.06405500306509651 -0.20928708715903108 0.00220237330568977 -0.18467703962774865 0.2177032009154124 -0.09933687944349014 -0.2258364126429234 0.012652529130177325
0.1302852876050211 0.032189832029288164 0.10658710509175186 0.09764077281560099 0.0762091340073898 -0.2610372569958709 -0.012041377157845028 -0.22527568321674435
-0.0159936385438384 0.017725274716145867 -0.34880172219584205 -0.2404875722190524 -0.011517082240523583 -0.18183028298579595 -0.025493911206220278 0.023832706250996646
-0.07073542531559052 -0.15840535482091272 0.4389451282253242 -0.08808041812340518 0.004711875804782601 -0.2350520707713894 -0.10941184573418357 -0.11979160209288785
-0.0007984610829153565 0.4141516902789746 0.008412899321630992 0.08093993877751032 0.005845841233596371 0.012457685051578404 -0.007815810782165223 0.2402674802430717
0.14687672372335717 -0.1367104557553487 -0.09448796914544196 -0.1364799903752204 -0.01774735831098815 -0.05099062280074833 -0.13739413951097532 -0.14294639555601685
0.06948538162610081 0.19721174519257997 -0.08095734243431232 0.05991309248040574 -0.02594537529502712 -0.07334485181458343 -0.019153995981250792 -0.10188267947222689
0.11454721962853427 0.23768522846020937 0.26604865570685415 -0.16018810050656124 0.24206924738981642 0.011657196077190167 -0.1152200628219388 -0.14348424202946097
0.10023219771697182 -0.08996246075680649 -0.14015781774930464 0.05095453632973598 -0.12813871363120585 -0.4532249812228981 -0.2827160012301939 0.115412048929352
-0.10961583029858576 0.22708493229221433 0.3122546906726473 -0.10554925909274515 0.07980617036123253 0.11034462836109517 -0.22732939597242083 -0.19575597821493773
-0.001450882543171059 0.17216452580462852 -0.2502259655745722 0.13794481331091152 -0.04493332839091697 0.18683707666627006 -0.3027070401511462 -0.35173143355114445
0.09222710309405416 -0.011118568652267534 -0.00788637789282327 0.40629639485515884 -0.3343355787334806 0.0683061867188917 0.01761082512022813 -0.051944700072865814
-0.1737925681539698 -0.048434340353420514 0.15432643662550655 -0.1292480094915642 0.17645914394776283 -0.1172134290769977 0.2641149493779783 0.11412667810988175

b2 f8 [10, 1]
00000000: 0d09 ef6e 6662 cfbf 5263 a808 91cc d23f
00000010: 92db 7555 5797 a1bf 6df1 0e78 ae16 c0bf
00000020: 37c3 e9a3 a33b b13f e105 3699 e1ff d93f
00000030: 5a68 2ab0 bb24 9bbf dfbc 5db3 f38c c43f
00000040: 6fbe 772d 5fab dcbf 0cd8 fcee a8a5 a8bf
-0.24519043366132856 0.2937357506321422 -0.03435776632516431 -0.1256921850416676 0.06731627227578661 0.40624275171293617 -0.026507313372896447 0.1605515123187393
-0.4479597038289062 -0.048138884709644086
